rice-early-vigor-phenotyping/model_weights/vigor_model.pth (torch, 167103 bytes, 15 tensors)

ms_branch.lstm.weight_ih_l0 f4 [256, 5]
0	0x3e0e69b1	0.13907506
1	0x3d9a31c7	0.075290255
2	0xbd1f41ee	-0.038881235
3	0xbd58d911	-0.052941386
4	0x3d0a3757	0.033744182
5	0x3e2fc065	0.17163236
6	0x3db4a831	0.088211425
7	0xbdc79b26	-0.09746389
8	0x3dd82b76	0.105551645
9	0x3d96cd8c	0.07363424
10	0xbca9bb49	-0.020719187
11	0x3db65b51	0.08904136
12	0xbd3d87cf	-0.046272095
13	0x3d92185a	0.07133551
14	0x3d8d77ed	0.0690764
15	0xbdc3d0f6	-0.095613405
16	0xbbd90b2e	-0.006623647
17	0xbe3ae483	-0.18251233
18	0xbdc27d39	-0.094965406
19	0x3d69ad56	0.05705007
20	0x3e1fa960	0.15591955
21	0xbdd5d798	-0.10441512
22	0xbd597411	-0.053089205
23	0x3d9e052e	0.07715832
24	0xbd417810	-0.04723364
25	0x3e063d28	0.13109267
26	0xbc0f2d75	-0.008738865
27	0x3c964260	0.018342197
28	0x3df49aba	0.11943574
29	0x3a18c4a7	0.00058276433
30	0x3d1fb0d3	0.038986992
31	0x3ca54c5f	0.020178018
32	0xbc0a0dc4	-0.008426134
33	0xbcdac2bc	-0.026704185
34	0xbd097014	-0.03355415
35	0xbd13f95a	-0.036126472
36	0xbde2844c	-0.1106039
37	0x3caf7965	0.02142019
38	0xbd33f345	-0.04393317
39	0x3d264ba1	0.04059947
40	0xbe58e900	-0.21182632
41	0xbdadb17a	-0.084811166
42	0xbe2dc37a	-0.169691
43	0xbe13822c	-0.14405125
44	0xbdc87a07	-0.097889
45	0x3bddd802	0.006770135
46	0xbcc5a2a3	-0.024125403
47	0x3ddd661a	0.1081049
48	0x3c966276	0.018357497
49	0xbd8ac68a	-0.067761496
50	0x3d2ecd0a	0.04267601
51	0xbd5c6e31	-0.053816024
52	0x3dfd1ce4	0.12359026
53	0x3e30ab90	0.17252946
54	0xbd9fd46c	-0.07804188
55	0xbe19a07f	-0.1500263
56	0xbe178e4a	-0.14800373
57	0xbe27d8d3	-0.16391306
58	0x3c9cb2f1	0.019128295
59	0xbe22f21b	-0.15912668
60	0xbd149f98	-0.036285013
61	0xbdba6645	-0.091015376
62	0x3c32becc	0.010909747
63	0xbd90b640	-0.070660114
64	0x3dc12d56	0.09432475
65	0x3e0bfe05	0.1367112
66	0x3bebb295	0.0071929195
67	0x3dee71c9	0.116427965
68	0x3de501dd	0.11181996
69	0x3e077030	0.1322639
70	0x3cfaa581	0.030596497
71	0xbdce5ec2	-0.10076667
72	0x3e0fe2c3	0.14051346
73	0x3dd0bda6	0.101924226
74	0xbc90fec1	-0.017699601
75	0x3cbf8744	0.02337993
76	0xbdcdf544	-0.10056546
77	0x3d2cd9f0	0.04220003
78	0xbcdd367e	-0.027003523
79	0x3cdfc4b6	0.027315479
80	0x3d96855b	0.07349654
81	0xbd1d95b4	-0.038472846
82	0xbdefd469	-0.11710436
83	0x3e0b28e0	0.13589811
84	0x3d033123	0.032029282
85	0xbd4c58fc	-0.04988955
86	0xbd6e47f8	-0.058174103
87	0x3d7d676e	0.061866216
88	0x3d7464c2	0.059666403
89	0x3dfd466a	0.12366946
90	0xbdb36b01	-0.08760644
91	0x3d2718d8	0.040795177
92	0xbe0104ac	-0.12599438
93	0xbdb4061d	-0.087902285
94	0xbdade250	-0.08490431
95	0xbd6c0e84	-0.05763103
96	0xbdefb5b1	-0.11704577
97	0x3db75c8a	0.08953197
98	0xbd06d598	-0.032918543
99	0xbad58644	-0.0016290625
100	0x3c8e3def	0.017363517
101	0xbd83fcc6	-0.06444697
102	0x3da548f8	0.08070558
103	0x3b59f9c5	0.0033260447
104	0xbd4b86ae	-0.049688987
105	0x3d5f5d77	0.054532494
106	0xbdb366fd	-0.08759878
107	0xbdaca4e4	-0.08429888
108	0xbd8c2807	-0.06843572
109	0x3c709602	0.014684202
110	0xbd484a2e	-0.04889887
111	0x3cae2ebe	0.021262523
112	0x3daa9415	0.08329026
113	0xbbae1c7c	-0.005313454
114	0x3e07c786	0.13259706
115	0xbd917cea	-0.071039036
116	0x3d9a78c7	0.07542568
117	0xbe567af5	-0.20945342
118	0x3de00ac9	0.10939557
119	0x3e037a9b	0.12839739
120	0x3d627fd3	0.055297684
121	0x3d97d1cb	0.07413062
122	0x3d775051	0.06037933
123	0x3e377da3	0.1791902
124	0xbd61f8ab	-0.05516879
125	0x3e23e52c	0.16005391
126	0x3cf36c60	0.029714763
127	0x3daa2364	0.083075315
128	0xbcba5883	-0.022747284
129	0x3d2ae0eb	0.041718405
130	0x3e4ada87	0.19809924
131	0xbdfe4bd1	-0.124168046
132	0xbd30e47d	-0.043186653
133	0x3e2cf034	0.16888505
134	0x3b33b128	0.0027418826
135	0x3d9576a4	0.072980195
136	0x3d84551f	0.06461548
137	0xbe068e2b	-0.1314017
138	0x3d97f095	0.07418934
139	0x3dab4a53	0.083637856
140	0x3e2065cf	0.15663837
141	0xbc0603f3	-0.0081796525
142	0x3cbf1cfe	0.023329254
143	0xbca66fed	-0.020317042
144	0xbc119485	-0.0088855075
145	0x3de3be64	0.111202985
146	0xbd9537c8	-0.0728603
147	0xbd5f85d7	-0.054571
148	0xbd4918cb	-0.04909591
149	0xbd81f7e4	-0.063461095
150	0xbd276196	-0.04086455
151	0x3c6c9f32	0.014442252
152	0x3cca81e3	0.024720138
153	0x3c80dd07	0.015730394
154	0x3d8a320f	0.06747829
155	0xbd667106	-0.05626013
156	0xbd86863f	-0.06568574
157	0xbc7c49c8	-0.01539845
158	0xbdb6423a	-0.088993505
159	0xbd5c2ead	-0.05375545
160	0x3e19ce47	0.15020095
161	0x3c224139	0.009903246
162	0x3e0c4f56	0.1370214
163	0x3d8258fb	0.06364628
164	0x3dfe8476	0.12427609
165	0xbbe6c1a5	-0.007042127
166	0xbd18b158	-0.037278503
167	0xbdd5fec5	-0.10448984
168	0xbd1cf786	-0.038321994
169	0x3cbf24c1	0.023332955
170	0x3d167695	0.036734182
171	0x3e201625	0.15633447
172	0x3e664526	0.22487316
173	0x3ca961ff	0.020676611
174	0xbd8651c3	-0.065585636
175	0x3a7c6dc9	0.00096293964
176	0x3a07dd7a	0.0005182844
177	0xbb77a313	-0.0037786409
178	0x3e07362e	0.13204262
179	0x3dcd8b73	0.100363635
180	0x3ce375fe	0.027766224
181	0xbcc4bb43	-0.024015075
182	0xbd20fb64	-0.039302245
183	0x3e285aee	0.16440937
184	0x3db8ed2c	0.09029612
185	0x3e37ac67	0.1793686
186	0x3e02e243	0.12781624
187	0xbd09efc1	-0.033675913
188	0x3d44010d	0.047852565
189	0x3d3e2b5f	0.04642808
190	0xbb5a6793	-0.0033325895
191	0xbdb43c33	-0.088005446
192	0x3dcc0b21	0.0996306
193	0xbde15bb9	-0.11003823
194	0xbdb381db	-0.08765002
195	0x3e4baa5e	0.19889209
196	0xbd891aed	-0.06694589
197	0xbce20865	-0.027591893
198	0x3d7ce27e	0.061739437
199	0xbcef4609	-0.0292082
200	0x3dfee272	0.12445535
201	0xbd861132	-0.065462485
202	0x3de6d496	0.11271016
203	0x3e123fed	0.14282198
204	0x3dbb0b59	0.09133024
205	0x3e628bd1	0.22123648
206	0x3c8cbff9	0.017181383
207	0xbd5d4180	-0.054017544
208	0x3d94a64d	0.07258282
209	0x3e1750c0	0.14776897
210	0xbc999e4d	-0.018752242
211	0xbe19f366	-0.15034255
212	0xbca419a0	-0.02003175
213	0xbd24a5d0	-0.040197194
214	0xbdf308c3	-0.118669055
215	0x3ca90e18	0.020636603
216	0x3db46efa	0.088102296
217	0xbd9b7d0e	-0.07592212
218	0xbd25b603	-0.040456783
219	0x3d8e4f6c	0.06948742
220	0x3e3df61e	0.18550918
221	0x3e2f3c12	0.17112759
222	0x3cb2d3a8	0.021829441
223	0x3dd78b28	0.10524589
224	0x3d18944d	0.037250806
225	0xbc2edca7	-0.010672725
226	0x3d0743c1	0.0330236
227	0xbdbde53a	-0.09272237
228	0x3dcb5245	0.09927801
229	0xbc77d370	-0.015126094
230	0xbd081449	-0.03322247
231	0xbc129b0e	-0.008948101
232	0x3d087fa9	0.03332487
233	0xbd49a17d	-0.049226273
234	0x3e1975df	0.1498637
235	0x3e46cc6c	0.19413918
236	0x3d855453	0.06510224
237	0xbd716c71	-0.05894131
238	0xbd8de158	-0.069277465
239	0x3d5ff1c0	0.05467391
240	0x3d749e37	0.059721198
241	0x3da0d7ac	0.07853636
242	0x3d2157d1	0.03939039
243	0xbd184d23	-0.03718294
244	0x3d417267	0.047228243
245	0x3da4c7fe	0.08045958
246	0xbd0e4f23	-0.03474344
247	0x3cb46747	0.022021903
248	0x3e2f7ebd	0.1713819
249	0x3d4d90fe	0.050187103
250	0x3e195a63	0.14975886
251	0xbd8c527a	-0.06851669
252	0x3cc238ab	0.023708662
253	0x3d805f6d	0.06268201
254	0xbde306a3	-0.1108525
255	0x3c581ac2	0.013189973

ms_branch.lstm.weight_hh_l0 f4 [256, 64]
0	0xbc5647da	-0.013078654
1	0x3ce964f9	0.02849053
2	0xbda480d8	-0.080323875
3	0xbe0eade4	-0.13933522
4	0x3cb2a811	0.021808656
5	0xbbccef8f	-0.0062541435
6	0xbd68513c	-0.056718096
7	0x3d0c899b	0.03431092
8	0x3dbac4c4	0.09119561
9	0x3c1a7690	0.009427682
10	0xbb47715d	-0.003043256
11	0xbe366b93	-0.17814474
12	0x3d3bad98	0.04581985
13	0xbba4b20e	-0.0050261086
14	0xbd06e46f	-0.032932695
15	0xbc06a67f	-0.008218407
16	0x3d59c37a	0.053164937
17	0x3d3860de	0.045014255
18	0xbca27e0d	-0.019835496
19	0xbc0223fd	-0.007943151
20	0x3bbf5754	0.0058392677
21	0x3d9ac02a	0.07556184
22	0xbd0f0c73	-0.034923982
23	0xbd991c31	-0.0747608
24	0xbd6052f4	-0.05476661
25	0x3e118d2a	0.14214006
26	0xbdde244b	-0.10846766
27	0xbce56677	-0.02800296
28	0x3c19fa9c	0.009398129
29	0x3d8cca52	0.06874527
30	0xbd7b3f43	-0.061339628
31	0x3d4f24b7	0.050572123
32	0x3d64ab2e	0.055827312
33	0x3d3d3a79	0.046198342
34	0xbdb427d2	-0.087966576
35	0x3dc9dc42	0.09856464
36	0x3db0124c	0.0859724
37	0x3e2493c7	0.16071998
38	0x3e0c1e3f	0.13683413
39	0xbe061de4	-0.1309734
40	0x3d81d9a7	0.06340342
41	0xbe1aa353	-0.15101366
42	0xbe0f0405	-0.13966377
43	0x3e15592c	0.14584798
44	0xbcfd4e5a	-0.03092115
45	0xbc195d5e	-0.009360639
46	0x3d380348	0.044925004
47	0x3cdf26a6	0.027240109
48	0x3d0afcd0	0.033932507
49	0xbdefd193	-0.11709895
50	0xbe2c9bca	-0.16856304
51	0x3dacf399	0.084449
52	0x3dd51287	0.104039244
53	0xbd64573b	-0.055747252
54	0xbe0dadc3	-0.13835816
55	0xbc691f72	-0.014228689
56	0xbc3e071a	-0.011598373
57	0xbe36e8ae	-0.17862198
58	0xbd826b3f	-0.06368112
59	0x3ddcf2b3	0.10788479
60	0x3d1e7838	0.03868887
61	0xbcc510c2	-0.024055842
62	0xbcf78d0c	-0.030218624
63	0x3d78f9e7	0.0607852
64	0x3cc613ac	0.024179302
65	0x3dabc612	0.08387388
66	0xbd49f67f	-0.049307343
67	0xbdb95d4b	-0.09050997
68	0xbd68b6b9	-0.056814883
69	0xbdcb4623	-0.09925487
70	0xbcb109ae	-0.021611061
71	0xbdbe7716	-0.093000576
72	0x3c384e35	0.011249115
73	0xbdc60a3d	-0.096699215
74	0x3c8b91de	0.017037328
75	0xbdc76d30	-0.09737623
76	0x3e2ca64d	0.16860314
77	0x3d3621ea	0.044465937
78	0x3c9d66a0	0.019213974
79	0x3d1b4764	0.03790988
80	0xbd56aff5	-0.0524139
81	0x3c89123d	0.01673233
82	0x3d46835b	0.048465114
83	0x3db28c3e	0.08718155
84	0xbda042c2	-0.07825233
85	0xbccf4fba	-0.025306571
86	0xbc985d78	-0.018599257
87	0xbce32916	-0.027729552
88	0xbdf0976c	-0.117476314
89	0x3dac4ecc	0.08413467
90	0xbdb4c3fa	-0.08826442
91	0xbcedde96	-0.029036801
92	0xbcbaa24e	-0.022782471
93	0x3d12aaa9	0.035807285
94	0x3caca1df	0.02107328
95	0xbd1d66d0	-0.038428128
96	0xbb643c1e	-0.0034825872
97	0xbd43c7d1	-0.04779798
98	0x3dce3b69	0.10069925
99	0xbd808c70	-0.06276786
100	0xbe15d8ed	-0.14633532
101	0x3bf5280a	0.0074815797
102	0x3d8be791	0.06831277
103	0x3cb8612a	0.022507269
104	0xbdb24409	-0.08704383
105	0x3c606363	0.013695571
106	0x3df245cf	0.11829721
107	0x3d8b0550	0.06788123
108	0xbe148ea8	-0.14507544
109	0x3daa86e0	0.083265066
110	0x3ce359bf	0.027752755
111	0xbda2cfaa	-0.07949765
112	0x3da62a5e	0.0811355
113	0x3d841d17	0.06450861
114	0xbd838731	-0.0642227
115	0xbc6bb33f	-0.014385997
116	0x3e01b843	0.12667947
117	0xbdc0acd8	-0.09407967
118	0xbde5ee75	-0.11227123
119	0xbd7e27cb	-0.06204967
120	0xbc846b25	-0.016164372
121	0x3d9d73d6	0.076881096
122	0xbd29874b	-0.04138879
123	0x3cb98a99	0.022649096
124	0x3d87827d	0.066166855
125	0x3ae544b8	0.0017491793
126	0x3dbdfc8f	0.09276687
127	0xbcb14f02	-0.02164412
128	0x3d5ad514	0.053425863
129	0xbd2b04f6	-0.041752778
130	0x3dd705bd	0.10499141
131	0x3ce7e99f	0.028309641
132	0x3dcaa52a	0.09894784
133	0x3de7d25a	0.11319418
134	0xbdd8a906	-0.10579114
135	0xbbbe501d	-0.00580789
136	0xbe057950	-0.13034558
137	0xbd287a7c	-0.041132435
138	0xbc7f5f7d	-0.015586731
139	0xbe04e562	-0.12978128
140	0x3df065f2	0.117381945
141	0xbd9d0115	-0.07666222
142	0xbd9b841a	-0.07593556
143	0xbd9407e8	-0.072280705
144	0xbd437d87	-0.047727134
145	0xbe029291	-0.12751223
146	0x3d01edd9	0.03172097
147	0x3dd942ca	0.10608442
148	0x3c9c61ab	0.01908954
149	0x3d9723b3	0.07379856
150	0xbcb42264	-0.021989055
151	0x3ceb5796	0.028728288
152	0x3c9d86e4	0.01922936
153	0xbdd21893	-0.102585934
154	0xbd00ee0f	-0.03147703
155	0xbd869e77	-0.065731935
156	0xbdb48817	-0.088150196
157	0x3c0c26af	0.008554145
158	0x3db462b6	0.0880789
159	0x3c97a87a	0.018512953
160	0x3dbfe1bd	0.09369228
161	0xbcc5d112	-0.024147544
162	0xbd1587ca	-0.03650645
163	0x38ab945b	8.181549e-05
164	0x3d0a21d9	0.033723686
165	0x3d72de89	0.059294257
166	0xbd6801a4	-0.05664219
167	0x3cf1af5a	0.02950256
168	0xbc9b7e27	-0.018981053
169	0xbdc3516f	-0.095370166
170	0x3cafb816	0.021450084
171	0x39660eb9	0.00021939994
172	0x3e69891d	0.22806211
173	0x3d8c0a51	0.06837905
174	0xbda29793	-0.07939067
175	0xbd1fab8b	-0.038981955
176	0xbce0e1a3	-0.027451342
177	0x3dd5847f	0.10425662
178	0xbe041d08	-0.129017
179	0x3e0024dc	0.1251406
180	0xbd178663	-0.036993396
181	0x3dfbf360	0.123022795
182	0x3d69d22e	0.05708521
183	0xbac05a0e	-0.0014675276
184	0x3d00ad8e	0.031415515
185	0xbdbbb8d6	-0.09166114
186	0x3e286a47	0.16446792
187	0x3c9af25e	0.018914398
188	0x3dfa0231	0.12207449
189	0x3dfb66b1	0.12275446
190	0x3c02edd1	0.00799127
191	0xbd56958d	-0.052388716
192	0xbd55ad96	-0.052167498
193	0xbdb043ed	-0.08606706
194	0xbe169f70	-0.14709258
195	0xbe216c48	-0.15763962
196	0xbdb89a61	-0.090138204
197	0x3d44fe39	0.048094008
198	0x3d097f50	0.03356868
199	0x3cc0b8f6	0.023525696
200	0xbe052e50	-0.13005948
201	0xbd940f70	-0.07229507
202	0x3dbc485a	0.091934875
203	0x3d8ac9d8	0.0677678
204	0x3d462b90	0.04838139
205	0x3d2f8a94	0.042856768
206	0xbd416c1b	-0.047222238
207	0x3db75f90	0.08953774
208	0x3d6bc703	0.05756284
209	0xbd4b3223	-0.04960836
210	0x3cd711d6	0.026253622
211	0xbcfe0580	-0.031008482
212	0x3d40a045	0.047027845
213	0x3e0ff8c2	0.14059737
214	0xbdfa2a19	-0.12215061
215	0xbd959fff	-0.073059075
216	0xbd74ed78	-0.05979678
217	0xbcc7573e	-0.024333593
218	0xbe1a3b34	-0.15061647
219	0xbd50fed6	-0.05102428
220	0x3cb9d2c7	0.022683514
221	0xbdc3abf7	-0.09554284
222	0x3db2aa46	0.08723883
223	0x3d2b4197	0.0418106
224	0xbdb19daf	-0.08672654
225	0xbc998383	-0.018739467
226	0x3dc323b0	0.09528291
227	0xbd657908	-0.056023628
228	0xbabcff02	-0.001441926
229	0xbcf06d6c	-0.029349051
230	0xbc936801	-0.017993929
231	0x3c5edbb9	0.013602191
232	0x3d8687c2	0.065688625
233	0xbe282bca	-0.16422954
234	0xbdf51ed5	-0.11968771
235	0x3e013f2c	0.12621754
236	0x3d8cc305	0.068731345
237	0x3e044f3f	0.12920855
238	0x3e287732	0.1645172
239	0xbd519c78	-0.05117461
240	0x3dfe2c87	0.12410837
241	0xbe269cc2	-0.16270736
242	0xbe01f5cf	-0.12691425
243	0xbc8d917c	-0.017281286
244	0xbd2c122a	-0.04200951
245	0xbd8733cc	-0.06601676
246	0xbddf1e43	-0.10894444
247	0xbde7caaf	-0.11317956
248	0xbc5ec95c	-0.0135978125
249	0x3c98fcd8	0.018675253
250	0x3cbf1216	0.023324054
251	0x3e01c34d	0.12672158
252	0xbd433fc5	-0.047668237
253	0x3c382c3f	0.011241018
254	0x3dc8371b	0.097761355
255	0xbd760148	-0.060059816

ms_branch.lstm.bias_ih_l0 f4 [256]
0	0xbd8652b9	-0.06558747
1	0xbdd58435	-0.10425607
2	0x3cdf9137	0.027290924
3	0xbe13dc3b	-0.1443948
4	0xbd9bd5d5	-0.076091446
5	0x3c97c831	0.018528076
6	0xbd57b261	-0.05266035
7	0xbdd9d894	-0.10637012
8	0xbdeebc7a	-0.11657043
9	0x3d575b25	0.052577157
10	0xbd60f7ed	-0.05492394
11	0x3d93e5bf	0.07221555
12	0x3da1addb	0.078944884
13	0xbc40b2d7	-0.011761389
14	0x3d0704da	0.03296361
15	0x3dd9dd6a	0.106379345
16	0xbda133c8	-0.078712046
17	0xbd7915a8	-0.06081167
18	0xbdf6726e	-0.120335445
19	0x3dbf5bf5	0.09343711
20	0x3dc26dbc	0.094935864
21	0x3ddc53d3	0.10758176
22	0x3cbc5e7c	0.022994272
23	0xbd8710ca	-0.06594999
24	0x3da353be	0.07974957
25	0x3e0ba028	0.13635314
26	0xbc8a9774	-0.016917922
27	0x3df57af5	0.11986343
28	0xbb64e811	-0.0034928361
29	0xbdbb648c	-0.09150037
30	0x3dfb5fa5	0.12274102
31	0xbd1e0ce9	-0.03858653
32	0xbd63e5d4	-0.055639103
33	0xbd4a23ab	-0.049350422
34	0x3b56d65e	0.0032781581
35	0x3de3bfc6	0.11120562
36	0xbd915f00	-0.07098198
37	0x3daf348c	0.085549444
38	0x3d312112	0.04324443
39	0x3d41427b	0.04718254
40	0x3d47fc36	0.04882451
41	0x3d85bdba	0.06530328
42	0xbd965156	-0.07339732
43	0x3dfa3dea	0.122188404
44	0x3d9e8b46	0.07741408
45	0xbd487949	-0.04894379
46	0xbd87d4fc	-0.066324204
47	0xbb8918db	-0.004183871
48	0xbdb5631c	-0.08856794
49	0x3d9ef2b7	0.07761138
50	0x3d092f4a	0.033492364
51	0xbd6a8397	-0.0572544
52	0xbe0a7935	-0.135228
53	0x3e0e3a44	0.13889414
54	0x3df7c1de	0.12097524
55	0x3d869c75	0.065728106
56	0x3db5fafa	0.088857606
57	0x3cbf0e66	0.023322295
58	0x3d25a2e5	0.04043855
59	0xbd802b80	-0.06258297
60	0xbbad4bf6	-0.0052885963
61	0xbe0ebbac	-0.13938779
62	0x3df9582c	0.121750206
63	0x3d811452	0.06302704
64	0x3d0daf9b	0.0345913
65	0xbdd65a87	-0.104664855
66	0x3dbb2027	0.09136992
67	0x3db1eb1f	0.08687424
68	0xbdd686a9	-0.10474903
69	0x3d6a5b29	0.057215843
70	0x3df5bf25	0.119993486
71	0xbd9cca10	-0.07655728
72	0xbe2b5da0	-0.16734934
73	0xbc6d2a7c	-0.014475461
74	0xbdb16153	-0.08661141
75	0x3d010e63	0.03150786
76	0x3dbfa846	0.093582675
77	0xbd9ba6d6	-0.07600181
78	0x3db85b00	0.09001732
79	0x3e0002b3	0.1250103
80	0xbae8baed	-0.0017755904
81	0x3ddd7a9c	0.108144015
82	0x3ddac4cc	0.10682067
83	0xbd46c40b	-0.048526805
84	0xbd85bcfd	-0.06530187
85	0xbd153c87	-0.036434676
86	0xb997afca	-0.00028931937
87	0x3dba4800	0.09095764
88	0xbb8fcecd	-0.0043886662
89	0xbdd4ff3d	-0.10400245
90	0x3dbe1c27	0.092827134
91	0xbdc4bd2c	-0.09606394
92	0x3d1f68f5	0.038918454
93	0xbb2be2e2	-0.0026227762
94	0xbcf016bf	-0.029307721
95	0x3c9ec206	0.019379627
96	0x3d801f4b	0.06255969
97	0xbdab1e60	-0.08355403
98	0x3db69f01	0.08917046
99	0xbdb4f390	-0.08835518
100	0xbc87ce2f	-0.016577808
101	0x3cd14a6a	0.025548179
102	0xbd7eaaa3	-0.06217445
103	0xbd47d516	-0.0487872
104	0xbd8007f2	-0.062515154
105	0xbd89b4c3	-0.06723931
106	0x3d163020	0.03666699
107	0x3d015c5b	0.031582218
108	0x3d0f202f	0.034942802
109	0xbdbb9dcf	-0.09160959
110	0xbcc00d61	-0.02344388
111	0xbd8c8d16	-0.068628475
112	0xbc14c7df	-0.009080856
113	0x3e0f577e	0.1399822
114	0xbd0a7159	-0.033799503
115	0xbd237d8f	-0.039914664
116	0xbe0545a8	-0.13014853
117	0xbcbbc523	-0.02292115
118	0x3e03a0f3	0.12854366
119	0x3b344c5c	0.0027511334
120	0xbd88cc7f	-0.066796295
121	0x3d2c5524	0.042073384
122	0x3d8cbc2e	0.0687183
123	0x3d9932af	0.0748037
124	0xbdbb0e62	-0.09133603
125	0x3dd1b362	0.10239293
126	0x3df8fee1	0.12157989
127	0x3df2910c	0.11844072
128	0x3cb16732	0.021655653
129	0xbcce2407	-0.025163664
130	0x3e125e67	0.14293824
131	0xbd7f1f9a	-0.062285997
132	0x3d04e36c	0.03244345
133	0x3dbceaf9	0.09224505
134	0xbd305da5	-0.043058056
135	0x3dad8eba	0.084744886
136	0xbd041dbc	-0.03225492
137	0x3c613c03	0.013747218
138	0x3d1d59b2	0.03841562
139	0x3b0e14de	0.0021679918
140	0xbdaaf94f	-0.08348333
141	0x3dff56ae	0.12467705
142	0xbda9b938	-0.08287281
143	0x3cf08855	0.029361883
144	0xbe20e792	-0.15713337
145	0x3c91327d	0.01772427
146	0x3d99c63f	0.075085156
147	0xbd9e0650	-0.07716048
148	0x3bf1cd82	0.007379235
149	0xbdae35ff	-0.08506393
150	0x3cf9af77	0.030479176
151	0x3dd3242f	0.10309636
152	0x3d913568	0.070902646
153	0xbd3eec35	-0.046611983
154	0x3cfc2952	0.030781422
155	0x3d641fda	0.05569444
156	0x3d832f81	0.06405545
157	0xbd6f2385	-0.058383483
158	0xbd81d88b	-0.063401304
159	0xbdedb209	-0.11606223
160	0xbd060aa9	-0.03272501
161	0xba86bcc0	-0.001027964
162	0xbcbc18d3	-0.022961056
163	0xb9a704bd	-0.00031856252
164	0x3df3e722	0.119093195
165	0x3ccd5da0	0.025069058
166	0x3d494435	0.049137313
167	0x3d91db11	0.07121862
168	0x3cc73e6b	0.024321755
169	0x3dd00119	0.10156459
170	0x3dd8b01e	0.10580467
171	0xbbedc00b	-0.0072555593
172	0x3ddba574	0.10724917
173	0xbd9e32c9	-0.0772453
174	0x3d7e5f08	0.062102348
175	0xbcf67161	-0.03008336
176	0xbd6e8f6f	-0.058242258
177	0x3dbe8949	0.09303529
178	0xbcc8bd17	-0.024504228
179	0x3c924c7d	0.017858738
180	0x3d85b19a	0.065280154
181	0x3e188124	0.14893013
182	0x3dfce0dd	0.12347577
183	0x3d898eb2	0.0671667
184	0x3d85a528	0.06525642
185	0x3d66dcec	0.05636303
186	0xbd545da8	-0.05184713
187	0xbdabe6ec	-0.08393654
188	0x3cde92d7	0.027169628
189	0xbd4730d9	-0.04863057
190	0xbdc0c4a6	-0.09412508
191	0xbd3f9f84	-0.046782985
192	0xbd2d9e71	-0.04238743
193	0xbd0e78e2	-0.03478325
194	0x3d4f583d	0.05062126
195	0xbc65febf	-0.014037787
196	0xbdd3d296	-0.103429005
197	0xbd0fa98e	-0.03507381
198	0x3de73703	0.112897895
199	0xbda476ec	-0.08030495
200	0x3c954477	0.018221123
201	0x3bc28925	0.005936759
202	0x3dcfa1e8	0.10138303
203	0x3d8babac	0.06819853
204	0xbdb12c37	-0.086510114
205	0x3b3d6e77	0.0028904954
206	0x3d735d51	0.059415165
207	0x3dfd8cd5	0.12380377
208	0xbac245e5	-0.0014821856
209	0x3ca3fb37	0.02001725
210	0xbdf0db51	-0.11760581
211	0xbdc22058	-0.09478825
212	0xbdb0b914	-0.08629051
213	0xbc72eacc	-0.014826488
214	0x3d3b2497	0.04568919
215	0x3d7ab07a	0.061203457
216	0xbd00c5dd	-0.031438697
217	0x3de0b6ee	0.10972391
218	0xbd9f6a9e	-0.077840075
219	0xbbb76d20	-0.0055977255
220	0x3d2d5f8f	0.04232746
221	0x3dfcc5f3	0.12342443
222	0x3dcfdefb	0.10149952
223	0x3d0b778f	0.034049567
224	0x3c69df08	0.014274366
225	0x3d3ab989	0.045587096
226	0x3d3d53de	0.04622256
227	0x3d685d5c	0.05672966
228	0x3d85aa33	0.065266035
229	0x3dbcedd8	0.092250526
230	0xbd16157b	-0.03664158
231	0x3d9bcac5	0.076070346
232	0xbd675f36	-0.056487285
233	0x3e108d04	0.14116293
234	0xbda42b7a	-0.08016105
235	0x3de86de7	0.11349087
236	0x3e20beae	0.15697739
237	0x3dbcbb4f	0.09215414
238	0x3da28107	0.07934766
239	0xbc90294f	-0.017597822
240	0x3de65677	0.112469606
241	0x3d635eb0	0.055510223
242	0x3d4316e3	0.04762925
243	0xbd1519eb	-0.03640167
244	0xbda7b83a	-0.08189435
245	0x3cbbe002	0.022933964
246	0xbdb45fe6	-0.08807354
247	0x3d0dccae	0.034619026
248	0xbd7862dd	-0.06064116
249	0x3e0861c9	0.13318552
250	0x3b782e7a	0.00378695
251	0x3d75be7d	0.059996117
252	0x3e209bea	0.15684476
253	0x3dbbaedb	0.091642104
254	0x3c9129b7	0.017720087
255	0xbca26461	-0.019823255

ms_branch.lstm.bias_hh_l0 f4 [256]
0	0xbda7055b	-0.08155318
1	0xbc6edf3f	-0.014579593
2	0x3d72432d	0.059146095
3	0xbd61fc84	-0.05517246
4	0xbda55371	-0.08072556
5	0x3dfbe6f6	0.12299912
6	0x3c55da7e	0.013052581
7	0x3d4cc860	0.04999578
8	0x3a8da89e	0.0010807698
9	0xbd1e7abb	-0.038691264
10	0x3dc4a7e5	0.09602336
11	0x3dce794f	0.100817315
12	0xbd77f907	-0.060540225
13	0x3dd506bd	0.10401676
14	0x3dd6e855	0.104935326
15	0x3a1e0ad3	0.00060288346
16	0x3ccdd563	0.025126165
17	0xbc58cf8a	-0.013233075
18	0x3cf7b425	0.030237267
19	0x3dd7da94	0.10539737
20	0xbcf44391	-0.029817374
21	0x3bf2a081	0.0074043875
22	0x3df5f5ab	0.12009748
23	0xbc1bc32c	-0.009506982
24	0xbd40b4b5	-0.047047336
25	0xbae77603	-0.0017659072
26	0x3dee05aa	0.11622174
27	0x3d0fca95	0.035105307
28	0x3d5b123b	0.053484183
29	0x3dbbc6c6	0.091687724
30	0x3d180056	0.037109695
31	0xbdc981b1	-0.0983919
32	0x3df54aa3	0.119771264
33	0xbda17074	-0.07882777
34	0xbd8fa683	-0.070141815
35	0xbdabf2ea	-0.083959416
36	0x3bd19ae0	0.0063966364
37	0x3ddeac6a	0.10872729
38	0x3de2486b	0.11048969
39	0x3dfb5463	0.12271955
40	0x3d7ff9b3	0.06249399
41	0xbc82d33e	-0.015969869
42	0xbddbb038	-0.107269704
43	0x3d41dcb8	0.047329634
44	0x3e6246b5	0.22097285
45	0x3dd8b8d9	0.10582132
46	0xbd89bb75	-0.06725208
47	0xbcaa0257	-0.020753069
48	0x3d4e3ad3	0.050349068
49	0x3ab4aa89	0.0013783734
50	0x3ca9fce7	0.020750476
51	0xbd920a83	-0.07130911
52	0xbd845fc2	-0.06463577
53	0x3e154b8c	0.145796
54	0x3d5f5f11	0.05453402
55	0xbde8479b	-0.11341783
56	0x3e02cb09	0.12772764
57	0x3cf64e2b	0.03006657
58	0x3d3bf24c	0.04588537
59	0x3da92357	0.08258694
60	0xbc4634ce	-0.012097551
61	0xbdf9d88c	-0.12199506
62	0x3d3b5824	0.045738354
63	0x3d98e230	0.07465017
64	0xbd9c5840	-0.0763402
65	0x3d35b417	0.0443612
66	0xbb6c90a9	-0.0036096966
67	0xbdfc9812	-0.123336926
68	0xbca4564a	-0.020060677
69	0x3dd02fa2	0.10165335
70	0x3d3c8139	0.046021674
71	0x3d74b058	0.059738487
72	0xbe2dca6f	-0.16971754
73	0xbd9cc27d	-0.07654283
74	0xbdd4f8c9	-0.103990145
75	0x3c7e607e	0.015525935
76	0x3e0004e9	0.12501873
77	0x3d6f1392	0.058368273
78	0x3d219803	0.03945161
79	0x3d2e1f40	0.04251027
80	0x3dbd2eb1	0.09237421
81	0xbccf9c5c	-0.025343113
82	0xbd3880ee	-0.045044832
83	0xbdf6239b	-0.1201851
84	0xbd8a33e3	-0.06748178
85	0x3decd866	0.11564712
86	0xbd75e8ac	-0.060036346
87	0x3ce2a786	0.027667772
88	0xbd0fb2b7	-0.035082545
89	0x3dcbff7f	0.099608414
90	0x3dbb530e	0.09146701
91	0x3d3d577f	0.04622602
92	0xbdc67503	-0.09690287
93	0x3e0f8694	0.14016181
94	0xbc8dc8a3	-0.017307585
95	0xbda2bdc5	-0.07946352
96	0xbddbbd05	-0.10729412
97	0x3d77ba5b	0.060480457
98	0x3d706219	0.058687303
99	0xbde04527	-0.1095069
100	0x3d96effb	0.073699914
101	0x3c888853	0.016666567
102	0x3ddc07b2	0.10743655
103	0xbd92dc53	-0.0717093
104	0xbded56cb	-0.1158882
105	0xbdb1ac66	-0.086754605
106	0xbe017b51	-0.12644698
107	0x3d5bee45	0.05369403
108	0x3c10f1a1	0.008846671
109	0x3daefa2c	0.0854381
110	0xbd8fe286	-0.07025628
111	0xbc909b21	-0.017652096
112	0x3d558e5f	0.05213773
113	0xbc8bffea	-0.017089803
114	0xbdfde062	-0.12396313
115	0x3d270145	0.040772695
116	0x3dde2da6	0.108485505
117	0x3db6dc4d	0.08928738
118	0xbcac310c	-0.021019481
119	0x3d9ed437	0.077553205
120	0x3db01a2d	0.08598743
121	0x3dbe56e4	0.09293917
122	0xbd3a8f3d	-0.04554676
123	0xbda6b6ac	-0.08140311
124	0xbd8edf6c	-0.06976208
125	0xbcf0c1a7	-0.029389216
126	0xbd2c68d6	-0.042092167
127	0x3e0edbd5	0.13951047
128	0x3da2773a	0.07932897
129	0x3defe67f	0.117138855
130	0x3e1309b1	0.14359166
131	0x3d8ae8a9	0.06782658
132	0x3d213063	0.039352786
133	0x3df9d4bb	0.12198778
134	0x3ca4eece	0.020133402
135	0x3e092c80	0.13395882
136	0x3d8cf458	0.06882542
137	0x3dd13db1	0.10216845
138	0x3d809920	0.06279206
139	0xbd81a9a3	-0.06331184
140	0x3d5644bb	0.05231164
141	0x3d9c7f75	0.07641498
142	0xbdcf45f1	-0.10120762
143	0xbdbf530d	-0.093420126
144	0xbe23d1f3	-0.15998058
145	0x3d3f1a72	0.04665608
146	0xbe0492ee	-0.12946674
147	0xbdecce71	-0.11562813
148	0x3d369082	0.044571407
149	0x3c86156e	0.01636764
150	0x3e0786c6	0.13235006
151	0x3dd7122b	0.10501512
152	0xbd981a4d	-0.074268915
153	0xbcc0f612	-0.023554835
154	0x3cac4b5f	0.021032033
155	0x3da4e95b	0.080523215
156	0x3d36deed	0.044646192
157	0x3d9005de	0.07032369
158	0x3bc853b0	0.006113492
159	0x3d110468	0.035404593
160	0x3da8f868	0.08250505
161	0xbd912efa	-0.07089038
162	0xbdfd3b4a	-0.12364824
163	0x3dba588a	0.09098919
164	0xbd89a607	-0.0672112
165	0xbd0bdadb	-0.034144264
166	0xbd87ca60	-0.06630397
167	0x3ddcdae3	0.10783937
168	0xbb8a4fef	-0.0042209546
169	0xbd32cd9a	-0.04365311
170	0xbdc25cfc	-0.094903916
171	0xbe1a1ec0	-0.15050793
172	0xbdf57f82	-0.11987211
173	0xbce2cf3b	-0.027686706
174	0xbe0ae02e	-0.1356208
175	0x3d943be8	0.07237989
176	0xbd2a1f83	-0.04153396
177	0x3dbcb016	0.09213273
178	0x3e0dc3f8	0.13844287
179	0xbb356e2e	-0.002768408
180	0xbdc84723	-0.09779193
181	0x3e04972d	0.12948294
182	0x3c39e428	0.011345901
183	0x3d762d25	0.060101647
184	0x3d986e59	0.07442922
185	0xbdb83843	-0.08995106
186	0xbc8fcfbd	-0.017555112
187	0xbd417fbb	-0.047240954
188	0xbc2445e7	-0.010026432
189	0x3cc19888	0.023632303
190	0xbdaab71f	-0.08335709
191	0x3e0e400b	0.13891618
192	0xbda400a3	-0.08007934
193	0xbdd381bc	-0.10327479
194	0xbd17d627	-0.037069466
195	0xbe0b1667	-0.13582765
196	0xbd86d426	-0.06583433
197	0x3d878925	0.06617955
198	0x3d92bc88	0.07164866
199	0xbd12313b	-0.03569148
200	0xbe2f633a	-0.17127696
201	0xbdeb58d9	-0.11491556
202	0x3d8673a8	0.065650284
203	0x3dce166f	0.100628726
204	0x3e129082	0.14312938
205	0x3cffd2c7	0.031228436
206	0x3d675075	0.056473214
207	0x3d8b4d1f	0.06801819
208	0xbd8bb1b0	-0.068210006
209	0x3df34938	0.118792
210	0xbda977a8	-0.08274776
211	0x3de609bb	0.11232325
212	0xbce4c1fd	-0.027924532
213	0xbd3f5730	-0.046714008
214	0xbd0a58e8	-0.033776194
215	0xbde070f0	-0.10959041
216	0xbde02e88	-0.10946375
217	0x3b92f010	0.004484184
218	0x3de528fb	0.11189457
219	0xbbefef94	-0.007322261
220	0x3db70540	0.08936548
221	0xbdb3ab94	-0.0877296
222	0x3dab3973	0.08360567
223	0x3dc43efc	0.09582326
224	0x3db0ed47	0.08639007
225	0xbcf158cc	-0.029461287
226	0xbd19cfca	-0.03755168
227	0xbdb72f08	-0.089445174
228	0xbd539ad4	-0.051661327
229	0x3ae7af80	0.0017676204
230	0xbd54363f	-0.051809546
231	0x3c5a7cf8	0.013335459
232	0x3c68c453	0.014206964
233	0xbdc6ff31	-0.09716643
234	0xbd8371d3	-0.064181946
235	0xbdbf3857	-0.09336918
236	0x3db1580e	0.08659373
237	0xbd382a75	-0.044962365
238	0xbd714ae3	-0.05890931
239	0xbd04e046	-0.032440446
240	0x3c736586	0.014855748
241	0x3cabfa2a	0.020993311
242	0xbd4544aa	-0.048161186
243	0x3def9179	0.116976686
244	0x3d60325b	0.054735523
245	0x3aea1d87	0.0017861583
246	0xbdb43f98	-0.08801192
247	0xbd98233e	-0.07428597
248	0xbde928ee	-0.1138476
249	0xbc1a9d96	-0.0094369855
250	0xbd24bb8d	-0.040217925
251	0x3b9bee40	0.004758626
252	0x3b402d3d	0.002932384
253	0x3d6322e2	0.05545319
254	0x3d9de93e	0.07710503
255	0xbde395ce	-0.11112557

ms_branch.attention.attention_weights.weight f4 [1, 64]
0	0xbdf74b23	-0.12074878
1	0x3e33d8b9	0.17563142
2	0x3d3bda49	0.04586247
3	0xbd013d2d	-0.031552482
4	0xbd2d9329	-0.04237667
5	0xbdbaf231	-0.091282256
6	0x3d9435b8	0.072368085
7	0xbe08449b	-0.13307421
8	0x3d6c23eb	0.05765144
9	0xbd2d302f	-0.04228228
10	0x3e020a06	0.12699136
11	0x3cdbb586	0.026819956
12	0xbdc3afad	-0.09554992
13	0xbe1073bf	-0.14106654
14	0xbdab3017	-0.08358782
15	0x3cc591b9	0.024117338
16	0x3d7be406	0.061496757
17	0x3e0544d1	0.13014533
18	0x3d550564	0.052007094
19	0x3cfbd319	0.030740308
20	0xbb84d402	-0.0040535936
21	0x3e04a8cc	0.12955016
22	0xbdabf0d2	-0.08395542
23	0xbd59be66	-0.053160094
24	0xbd55f27c	-0.052233204
25	0xbdc91430	-0.098183036
26	0xbce92661	-0.028460683
27	0xbba589f1	-0.0050518443
28	0x3ce541fb	0.027985564
29	0xbde01bd5	-0.109428085
30	0x3dee9287	0.116490416
31	0x3e0638d8	0.13107622
32	0x3da2d459	0.07950658
33	0xbc04ec09	-0.008112916
34	0xbc67234c	-0.0141075365
35	0x3e3ee2d1	0.18641211
36	0x3d70feb1	0.058836643
37	0x3dc8093c	0.09767386
38	0xbe36b4f5	-0.17842467
39	0x3d886d9e	0.06661533
40	0xbbeb95c3	-0.007189484
41	0xbbb45999	-0.005503845
42	0x3cd5764d	0.026057387
43	0xbd0d0402	-0.03442765
44	0x3e594025	0.21215875
45	0x3c813693	0.015773093
46	0x3e251f3c	0.16125196
47	0xbd77a351	-0.060458485
48	0xbd98de62	-0.07464291
49	0xbd68b020	-0.05680859
50	0x3d75f48f	0.060047682
51	0xbe0e92db	-0.13923208
52	0x3d8a9779	0.06767172
53	0xbc6fb353	-0.014630157
54	0x3d91b7ba	0.07115121
55	0x3e25d26c	0.16193551
56	0xbc8a13e9	-0.016855197
57	0xbdda5ada	-0.1066186
58	0xbd0784b6	-0.033085547
59	0xbd826a04	-0.06367877
60	0xbe902a34	-0.28157198
61	0x3d9d3e3a	0.076778844
62	0xbd4e5c43	-0.050380956
63	0x3d574cb1	0.052563373

ms_branch.fc.weight f4 [32, 64]
0	0xbda05eee	-0.078306064
1	0x3bc054f2	0.0058695013
2	0xbceae402	-0.028673176
3	0xbddf70a8	-0.10910159
4	0x3d8cac70	0.06868827
5	0xbd10b5c8	-0.03532961
6	0x3df4a822	0.11946131
7	0xbdbd80a8	-0.09253055
8	0x3d4870d6	0.048935734
9	0x3c91b3bc	0.0177859
10	0xbc283e3c	-0.010268744
11	0xbdff4330	-0.12463987
12	0xbd70dba2	-0.05880321
13	0xbca8d604	-0.020609863
14	0x3c906ee4	0.017631002
15	0x3c3ee8ec	0.011652213
16	0xbdcad056	-0.09903018
17	0x3c1b725c	0.009487715
18	0x3dc40912	0.095720425
19	0xbd4d0ab2	-0.050059028
20	0x3d4b20da	0.049591877
21	0xbc2cac0c	-0.010539066
22	0x3dab0f6a	0.083525494
23	0x3da17f9e	0.07885669
24	0xbd9d19be	-0.076709256
25	0x3d864b8c	0.06557378
26	0x3d99b19c	0.075045794
27	0xbdc82f1e	-0.09774612
28	0xbdf25a98	-0.11833686
29	0xbd0f04f0	-0.03491682
30	0xbda33062	-0.07968213
31	0xbda02cec	-0.07821068
32	0x3dd45ece	0.10369645
33	0x3dc90f90	0.098174214
34	0x3db550ca	0.088533
35	0x3d9b56bc	0.07584903
36	0x3d970102	0.07373239
37	0xbd674d46	-0.056470178
38	0xbd65c6a6	-0.05609765
39	0xbcd8621a	-0.026413966
40	0xbdbed9b4	-0.09318867
41	0xbd82978e	-0.06376563
42	0x3da9d782	0.08293058
43	0xbd36b5e8	-0.044607073
44	0xbd400aa2	-0.04688514
45	0xbd05a088	-0.032623798
46	0xbdc925d2	-0.09821667
47	0x3ce110ba	0.027473796
48	0x3d54ba4a	0.05193547
49	0xbd3c83cc	-0.04602413
50	0xbd90f266	-0.07077484
51	0x3cfd8f32	0.03095207
52	0xbd0373a8	-0.03209272
53	0x3daaa71a	0.08332653
54	0x3cf9e902	0.030506615
55	0xbd26e034	-0.04074116
56	0x3df7e028	0.12103301
57	0x3d5de5ea	0.05417434
58	0xbc67ece2	-0.014155598
59	0xbde632ae	-0.11240135
60	0x3dd04c42	0.10170795
61	0x3d50459e	0.050847642
62	0xbdbdce8c	-0.09267911
63	0xbdd84948	-0.10560852
64	0xbda43606	-0.08018117
65	0x3db6f4aa	0.08933385
66	0x3e092e84	0.1339665
67	0xbbd39e22	-0.00645806
68	0xbc3c4fe8	-0.0114936605
69	0x3e0e9d2f	0.13927148
70	0xbdc6af5a	-0.097014144
71	0x3ca2fc36	0.019895654
72	0xbd5e618b	-0.054292243
73	0xbd20aee9	-0.039229307
74	0xbdb624cb	-0.088937365
75	0x3d8c021d	0.068363406
76	0x3e12bc00	0.14329529
77	0x3d6c9a8c	0.057764575
78	0x3d7c3b6b	0.061580103
79	0x3d616a01	0.055032734
80	0xbdb4fc2b	-0.0883716
81	0x3cfbb624	0.0307265
82	0xbdfefae7	-0.124501996
83	0x3dc6b516	0.09702508
84	0x3cb61bc4	0.022230037
85	0x3dbae69b	0.09126016
86	0x3ddfae09	0.109218664
87	0x3e07c55d	0.13258882
88	0x3da3faa3	0.080067895
89	0xbd795a44	-0.0608771
90	0xbdb82a92	-0.08992495
91	0x3d3daffe	0.046310417
92	0x3dee4b93	0.116355084
93	0xbcad836f	-0.021180836
94	0x3d0a5dfe	0.033781044
95	0xbdf05130	-0.11734235
96	0x3db485fe	0.088146195
97	0x3d509e3e	0.05093216
98	0x3e1ef5ef	0.15523504
99	0x3e005e51	0.12535979
100	0x3dd953a4	0.10611656
101	0xbdc081c0	-0.09399748
102	0xbd1312e3	-0.035906684
103	0xbdbfe54e	-0.09369908
104	0xbda6e479	-0.081490465
105	0x3e0dfd89	0.13866247
106	0xbd597f68	-0.05310002
107	0xbdad314e	-0.0845667
108	0x3e564f1d	0.20928617
109	0x3dd63f82	0.10461332
110	0x3d8c7a1f	0.0685923
111	0x3b7a1395	0.0038158644
112	0x3c6fbb84	0.01463211
113	0x3dd4c643	0.10389378
114	0x3da62a33	0.081135176
115	0x3d80ea58	0.062946975
116	0xbdbe0d07	-0.092798285
117	0x3c9fc6f2	0.019504044
118	0x3d34b492	0.044117518
119	0xbd4a79e5	-0.049432654
120	0xbc21f3d3	-0.009884792
121	0xbd917232	-0.07101859
122	0xbd977b11	-0.0739652
123	0xbd4bba57	-0.049738254
124	0x3d005a9f	0.031336423
125	0xbe0419b5	-0.12900431
126	0xbcbd6d52	-0.023123417
127	0x3da6f0d8	0.08151406
128	0xbdbeeabe	-0.09322117
129	0x3dedfe90	0.116208196
130	0xbd0dbde8	-0.034604937
131	0xbd8d88be	-0.06910847
132	0x3cd8910a	0.026436348
133	0x3da95350	0.08267844
134	0x3d96f13c	0.073702306
135	0x3c3fdffc	0.011711117
136	0x3d3e65bc	0.04648374
137	0xbdfe17d0	-0.124068856
138	0x3bfd3692	0.0077274526
139	0x3df79d16	0.12090509
140	0x3da029ae	0.0782045
141	0xbde2b10e	-0.11068927
142	0xbce1136a	-0.027475078
143	0xbd6d080e	-0.05786901
144	0x3debeb84	0.115195304
145	0xbca4792c	-0.02007731
146	0x3c8ba7fc	0.017047875
147	0x3d8920e8	0.066957295
148	0xbdcd9934	-0.10038987
149	0x3dbdc136	0.09265368
150	0xbd8d5ae0	-0.06902099
151	0xbdea100e	-0.114288434
152	0xbd07bd74	-0.03313966
153	0xbbd6ee32	-0.006559157
154	0x3d5ff17e	0.054673664
155	0x3d6845da	0.05670724
156	0x3d1dda4c	0.038538262
157	0xbbf44892	-0.00745494
158	0xbd1ab53c	-0.037770495
159	0x3d975aca	0.073903635
160	0x3df3390a	0.11876114
161	0x3dfe6e8c	0.12423429
162	0xbc215f0c	-0.009849321
163	0x3db6f7d8	0.08933991
164	0x3d617b8e	0.05504947
165	0xbcebb512	-0.028772864
166	0xbc577642	-0.013150753
167	0x3d4cd74a	0.050010003
168	0xbc88237c	-0.016618483
169	0x3ccc4f42	0.024940137
170	0xbde2557a	-0.110514596
171	0x3dca97f8	0.09892267
172	0x3d107e6c	0.035276815
173	0x3d99eebc	0.07516238
174	0x3c042dfc	0.008067604
175	0x3d807372	0.062720194
176	0x3dc359b2	0.095385924
177	0xbd6eedf6	-0.058332406
178	0x3dfabaa4	0.1224263
179	0x3c43ed62	0.011958452
180	0x3dda66ea	0.106641605
181	0x3d875e44	0.066097766
182	0x3dd6072e	0.10450588
183	0x3d9bd978	0.07609838
184	0x3d704c3e	0.05866646
185	0xbd3ee390	-0.04660374
186	0xbdb1a932	-0.086748496
187	0xbc717742	-0.014737906
188	0xbc8a35cc	-0.016871355
189	0xbda3147e	-0.07962893
190	0xbc456542	-0.0120480675
191	0xbd2850a0	-0.041092515
192	0x3d9268a7	0.07148867
193	0x3d066263	0.032808673
194	0x3db29360	0.08719516
195	0x3dc76311	0.09735692
196	0xbc6c0442	-0.014405312
197	0x3dc62459	0.096749015
198	0x3d27384e	0.04082518
199	0x3dd9e26a	0.10638888
200	0xbdd21371	-0.102576144
201	0x3dc3841e	0.09546684
202	0xbda1bbd5	-0.07897154
203	0xbbd7fdcf	-0.0065915356
204	0x3e28bf06	0.1647912
205	0x3c480e3c	0.012210425
206	0xbd03d8ce	-0.032189183
207	0xbe14e955	-0.14542134
208	0xbd816f92	-0.063201085
209	0x3d5e348c	0.05424933
210	0xbdd4a460	-0.103829145
211	0x3d171db7	0.036893573
212	0xbbc0fe90	-0.005889721
213	0x3d98c3c5	0.07459215
214	0x3c67690e	0.014124168
215	0xbd4ace90	-0.0495134
216	0x3dd17a74	0.10228434
217	0xbcf6bf6b	-0.030120572
218	0x3d27fd71	0.041013185
219	0x3dd92af3	0.10603895
220	0x3c2002b1	0.009766267
221	0x3b0059e1	0.0019584822
222	0xbdee55ef	-0.11637484
223	0xbe1c5a9a	-0.15268937
224	0x3e15064f	0.14553188
225	0xbe09c755	-0.13454945
226	0xbd8f5804	-0.069992095
227	0xbc143c91	-0.009047643
228	0x3ca20a7d	0.019780392
229	0xbdd5a47c	-0.104317635
230	0xbddd44f3	-0.10804167
231	0xbcc6a446	-0.024248254
232	0xbe1bee18	-0.15227544
233	0x3e0ebc50	0.13939023
234	0x3de89015	0.113556065
235	0xbda331f7	-0.079685144
236	0x3df324ce	0.11872254
237	0xbde81028	-0.113312066
238	0xbc25852c	-0.010102551
239	0x3dc1eecd	0.09469376
240	0xbe12c593	-0.14333181
241	0x3e150ff7	0.14556871
242	0x3de649aa	0.11244519
243	0xbd19ddb2	-0.03756494
244	0xbd3e6731	-0.04648513
245	0x3e034687	0.12819873
246	0x3dbcf48d	0.09226332
247	0xbd7f52dc	-0.06233488
248	0xbd82d390	-0.063880086
249	0xbde0566d	-0.109539844
250	0xbdcd3df7	-0.100215845
251	0xbd9c572c	-0.07633814
252	0x3d67b43c	0.05656837
253	0xbd8e2413	-0.06940474
254	0xbd5b77ab	-0.05358092
255	0x3d5b75fc	0.053579316

ms_branch.fc.bias f4 [32]
0	0xbde5d0d0	-0.112214684
1	0x3e18eeaa	0.14934793
2	0xbdd021c2	-0.10162689
3	0x3d4f2a3a	0.05057738
4	0x3c9e6f2c	0.01934012
5	0xbddab9dc	-0.10679981
6	0xbdfd2206	-0.12360005
7	0xbdd0d410	-0.10196698
8	0xbdcbd39a	-0.09952469
9	0xbded7ca6	-0.115960404
10	0x3d185fbe	0.037200682
11	0x3cf82a93	0.030293738
12	0xbc3922dc	-0.011299815
13	0x3deb0618	0.11475772
14	0xbdca15e2	-0.09867455
15	0x3dfea3d3	0.12433591
16	0xbdb4f7ac	-0.08836302
17	0x3e13aafc	0.14420694
18	0x3de23d40	0.11046839
19	0xbd69f97e	-0.0571227
20	0x3de7c197	0.11316221
21	0xbd74299a	-0.059609987
22	0xbdd6e4c8	-0.10492855
23	0x3dcfccd7	0.10146492
24	0x3ba4f68c	0.0050342735
25	0xbdb5bcd6	-0.08873908
26	0xbc583362	-0.013195844
27	0x3d95293d	0.07283256
28	0x3da5f779	0.08103842
29	0xbda2db7c	-0.079520196
30	0x3e01cc1f	0.12675522
31	0x3e11dcab	0.14244334

lidar_branch.lstm.weight_ih_l0 f4 [256, 3]
0	0x3e4d6023	0.20056204
1	0x3e3c5188	0.18390477
2	0x3dfe8388	0.12427431
3	0x3e1c30b7	0.15252958
4	0xbe2ba385	-0.16761597
5	0xbc5eaf20	-0.013591558
6	0x3d4d2848	0.050087243
7	0x3cf18433	0.029481983
8	0xbde2b141	-0.11068965
9	0xbd2feb18	-0.042948812
10	0xbd187b8c	-0.0372272
11	0x3d3f370f	0.046683367
12	0x3d6b0fe5	0.057388205
13	0xbd3592f1	-0.044329587
14	0x3c330757	0.010927043
15	0xbc7294d7	-0.014805994
16	0x3dff90e0	0.124788046
17	0xbddc6616	-0.10761659
18	0x3db72fbc	0.089446515
19	0x3ddb3e4c	0.107052416
20	0xbd9411d6	-0.072299644
21	0x3dff352f	0.12461316
22	0x3d8b85bb	0.068126164
23	0xbd0c9a36	-0.034326755
24	0x3d3415c2	0.043966062
25	0x3d5d47f5	0.0540237
26	0x3cfb2caf	0.030660955
27	0x3cfa28ac	0.030536972
28	0x3dc5364f	0.09629499
29	0xbdc6e6b9	-0.097119756
30	0x3e093857	0.13400398
31	0xbdfa154d	-0.12211094
32	0x3d812413	0.06305709
33	0x3c9e244d	0.019304419
34	0xbdfb7165	-0.12277488
35	0x3d28cc90	0.04121071
36	0xbcaa03d6	-0.020753782
37	0x3d50fe89	0.051023994
38	0x3e087a1b	0.1332783
39	0x3e8438b7	0.2582452
40	0xbc9b6bd1	-0.01897231
41	0xbe59fe6f	-0.21288465
42	0x3dff49ac	0.12465224
43	0xbd7232e3	-0.05913056
44	0x3e243983	0.16037564
45	0x3d9d86ab	0.076917015
46	0x3cc3b7e4	0.023891397
47	0x3c8ffcbf	0.017576573
48	0xbd5bbc05	-0.053646106
49	0x3dec2363	0.11530187
50	0xbe8feb1a	-0.28109056
51	0x3e66178d	0.22469921
52	0x3d0e1d52	0.03469593
53	0xbd4b9748	-0.04970482
54	0x3e77827a	0.24170867
55	0x3e197118	0.14984548
56	0x3e165945	0.14682491
57	0x3de461be	0.11151455
58	0x3e3a45e2	0.1819072
59	0x3e8c8f9b	0.27453312
60	0x3ce50bfb	0.027959814
61	0x3e07b365	0.13252027
62	0xbe44dd1e	-0.19224975
63	0xbd373253	-0.044725727
64	0xbd904114	-0.07043663
65	0x3e40df9f	0.18835305
66	0xbe01537c	-0.12629503
67	0x3dcb46a5	0.09925584
68	0xbe78562d	-0.24251623
69	0xbd1396c8	-0.036032468
70	0xbcdc8528	-0.026918963
71	0x3de4498f	0.11146843
72	0xbbf1c87f	-0.0073786373
73	0x3dbe570b	0.09293946
74	0xbdb232a2	-0.08701064
75	0x3d2eebd2	0.042705365
76	0x3e0e4397	0.13892971
77	0xbd8295d8	-0.06376237
78	0xbd931c81	-0.07183171
79	0x3d092cc7	0.03348997
80	0x3cf02f22	0.02931935
81	0x3ba6fabd	0.0050958083
82	0xbe3c51b5	-0.18390544
83	0xbd569787	-0.0523906
84	0xbe10fd50	-0.14159131
85	0xbdba7f55	-0.09106318
86	0x3d97b7d0	0.07408106
87	0xbd663c2b	-0.056209724
88	0x3def44cb	0.11683043
89	0x3e3ab457	0.18232857
90	0xbd74d782	-0.059775837
91	0xbcce3b10	-0.025174648
92	0x3d59a0fc	0.053132042
93	0x3d6f557d	0.058431137
94	0xbdd71e72	-0.10503854
95	0xbdba32dc	-0.09091732
96	0x3da5b2af	0.08090722
97	0xbe02110e	-0.12701818
98	0x3ce542af	0.027985899
99	0xbded4b72	-0.11586656
100	0xbdc78dee	-0.09743868
101	0x3d9a0d02	0.07522012
102	0x3d8d7e26	0.069088265
103	0xbd4234cf	-0.047413643
104	0xbbf12941	-0.007359654
105	0x3d3d2333	0.046176147
106	0xbe235864	-0.15951687
107	0x3dff44ba	0.124642804
108	0x3dd9c52e	0.10633312
109	0x3d36b158	0.044602722
110	0x3d940f9c	0.0722954
111	0x3d084600	0.033269882
112	0x3d8c6821	0.068557985
113	0xbe59529c	-0.21222919
114	0x3e23726d	0.15961619
115	0x3e23eac1	0.1600752
116	0xbd30ed34	-0.043194965
117	0xbd2859cf	-0.041101273
118	0xbc36e1f2	-0.011162268
119	0x3edc6aee	0.4305033
120	0x3d1a307f	0.037643906
121	0xbe34ecf8	-0.17668521
122	0x3d891725	0.066938676
123	0xbd40dc10	-0.047084868
124	0xbd2e8d4d	-0.042615224
125	0xbd309803	-0.04311372
126	0x3e2fd8d0	0.17172551
127	0x3d67a100	0.056550026
128	0x3dd4cdd3	0.1039082
129	0x3dab7132	0.083712
130	0xbc983242	-0.018578652
131	0xbd936ee7	-0.07198887
132	0xbb8b07ca	-0.004242872
133	0xbd9a3072	-0.075287715
134	0x3dde63be	0.10858868
135	0xbe0658f3	-0.13119869
136	0xbe527c47	-0.2055522
137	0x3db44aa5	0.088033
138	0x3de543cf	0.11194574
139	0x3d18386a	0.037163176
140	0xbd73ce96	-0.059523188
141	0x3d71dfab	0.059051197
142	0x3e1a2a53	0.15055208
143	0xbdbf81b2	-0.09350909
144	0x3c0fced6	0.008777341
145	0x3e09b5c5	0.13448246
146	0xbc890584	-0.016726263
147	0x3dbf30ce	0.09335481
148	0xbcc7a86e	-0.024372306
149	0x3d36f953	0.044671368
150	0x3ca41c9d	0.020033175
151	0x3cc59454	0.02411858
152	0x3d37bdd8	0.044858783
153	0x3d36049a	0.044437982
154	0xbc345cc2	-0.011008443
155	0x3ce98bcb	0.028509041
156	0xbd69de2d	-0.05709665
157	0x3e45af55	0.19305165
158	0x3c3408f8	0.010988466
159	0x3c4eddb0	0.012626097
160	0xbd96b829	-0.073593445
161	0xbccb0b57	-0.02478568
162	0xbdab2bfa	-0.08357997
163	0xbd6d8842	-0.057991274
164	0x3e722236	0.23645863
165	0x3c40260a	0.011727819
166	0x3e240820	0.16018724
167	0xbb490a67	-0.0030676366
168	0x3e3b471e	0.18288848
169	0x3e0d2b5e	0.13786075
170	0x3dfeb769	0.124373265
171	0x3d03f3f5	0.032215077
172	0x3d5d0512	0.053959914
173	0x3d6f491d	0.058419336
174	0x3d87e05e	0.066345915
175	0x3e1b533f	0.15168475
176	0xbd02d42f	-0.031940635
177	0xbd6fbda6	-0.058530472
178	0xbe60b707	-0.2194482
179	0x3de02ea2	0.109463945
180	0x3df58de3	0.11989953
181	0x3d189558	0.0372518
182	0xbd6237ae	-0.05522888
183	0x3d0dd95f	0.03463113
184	0x3c862d00	0.01637888
185	0xbd7d038e	-0.06177097
186	0xbd8ea18e	-0.06964408
187	0x3bae4d4d	0.0053192736
188	0x3e06ef94	0.1317733
189	0x3dca630a	0.098821715
190	0x3c3fba2e	0.011702104
191	0x3d5715c5	0.052510995
192	0x3df67238	0.12033504
193	0xbd4877ff	-0.048942562
194	0xbdc4a785	-0.09602264
195	0xbdf01052	-0.11721863
196	0xbe0329cf	-0.12808917
197	0x3d77ed9d	0.06052934
198	0xbdc069ec	-0.09395203
199	0xbe27f155	-0.16400655
200	0xbdc7f91f	-0.09764313
201	0x3d986848	0.07441765
202	0xbd344bb5	-0.044017512
203	0xbda911c5	-0.082553424
204	0x3d519a28	0.051172405
205	0x3e2b9665	0.1675659
206	0xbd739939	-0.059472296
207	0xbd9dd49b	-0.07706567
208	0x3d502366	0.05081501
209	0xbc91085c	-0.017704181
210	0x3d94a26a	0.072575405
211	0x3de5e856	0.11225955
212	0x3d7fd680	0.062460423
213	0x3dbf6f71	0.09347428
214	0x3dd3c0ab	0.10339483
215	0x3d4eaa82	0.050455578
216	0x3d7abbd7	0.061214294
217	0xbd83f155	-0.06442515
218	0xbb0afa18	-0.0021206196
219	0x3dda0c08	0.10646826
220	0x3d25834e	0.040408425
221	0x3d3106da	0.043219425
222	0xbe33860a	-0.175316
223	0x3a9b72ad	0.0011859738
224	0xbd8ae87d	-0.06782625
225	0xbdbd5e43	-0.092464946
226	0xbae1a492	-0.0017215183
227	0xbd15c301	-0.036562923
228	0x3cbae5a4	0.02281458
229	0x3e08e528	0.13368666
230	0xbd079bf3	-0.03310771
231	0xbdda61cb	-0.10663184
232	0xbda23eaa	-0.079221085
233	0x3e1703a5	0.14747484
234	0x3db01cfb	0.085992776
235	0xbd90a36a	-0.07062419
236	0x3d2171a8	0.03941503
237	0xbe38fb7b	-0.18064682
238	0xbd86b849	-0.06578118
239	0xbdb85226	-0.090000436
240	0x3dc9a52e	0.09845959
241	0x3d5157c7	0.0511091
242	0xbc8decb5	-0.017324785
243	0xbd540bd5	-0.051769096
244	0x3da6750c	0.08127794
245	0x3df6f577	0.120585375
246	0xbcc0882c	-0.023502432
247	0x3b9b9d0b	0.0047489456
248	0xbdb3d3b5	-0.08780614
249	0xbe0d6c88	-0.13810933
250	0xbddc4da6	-0.10756998
251	0xbd8c17fd	-0.06840513
252	0xbdf6993d	-0.12040947
253	0xbd6d46f5	-0.057928998
254	0xbda3936c	-0.07987103
255	0x3e08c972	0.13358095

lidar_branch.lstm.weight_hh_l0 f4 [256, 64]
0	0xbe86cef1	-0.2632976
1	0xbd06cca9	-0.032910023
2	0x3da976e6	0.08274631
3	0x3dec513d	0.115389325
4	0x3df1e091	0.11810411
5	0x3e2dc710	0.16970468
6	0x3d142bf1	0.03617472
7	0x3e009949	0.12558474
8	0xbe57944c	-0.21052665
9	0xbdc8a389	-0.09796817
10	0xbdb8ae06	-0.09017567
11	0x3da81eb1	0.08208979
12	0x3e18e8ec	0.14932603
13	0xbe8586e0	-0.26079464
14	0x3e830841	0.25592235
15	0xbb73db05	-0.0037209403
16	0x3db76d0d	0.08956347
17	0xbd0cebfc	-0.03440474
18	0xbdf38d52	-0.11892189
19	0xbdd7349b	-0.105080806
20	0xbebb81cf	-0.36622474
21	0xbe2f3320	-0.17109346
22	0x3d3c2209	0.045930896
23	0x3dbb7f8c	0.09155187
24	0x3e1588b9	0.14602937
25	0x3d12ba4e	0.035822205
26	0xbdcdaf30	-0.1004318
27	0xbd9fa22b	-0.07794603
28	0xbd064650	-0.0327819
29	0xbe560017	-0.20898472
30	0x3d7ec286	0.06219723
31	0x3d23429b	0.03985844
32	0xbdf69044	-0.12039235
33	0x3e394ad1	0.18094946
34	0xbd410e46	-0.047132753
35	0xbe8b242b	-0.2717603
36	0x3d9be5df	0.07612204
37	0x3d364eec	0.04450886
38	0xbe581bc3	-0.2110434
39	0xbe2b8a14	-0.16751891
40	0x3e71bbec	0.23606843
41	0x3db2125e	0.086949095
42	0xbd9ddea1	-0.07708479
43	0xbe1dea21	-0.15421344
44	0x3e04540f	0.12922691
45	0x3df68af1	0.1203822
46	0x3d123585	0.03569557
47	0x3c11ad3e	0.008891402
48	0x3e27cef5	0.16387542
49	0xbe061cfe	-0.13096997
50	0x3db38585	0.08765701
51	0x3e22651c	0.15858883
52	0x3e85c7a5	0.2612888
53	0xbe372c4f	-0.17887996
54	0xbe353151	-0.17694594
55	0xbe12f948	-0.14352906
56	0x3cd43a04	0.02590657
57	0xbde1174f	-0.10990774
58	0xbe5283a2	-0.20558026
59	0xbdc9cd36	-0.09853594
60	0xbd72b223	-0.059251916
61	0x3e424bc7	0.1897422
62	0xbe1308c8	-0.14358819
63	0x3d1edf3b	0.038787108
64	0x3da8bc21	0.08239008
65	0x3c8e6e83	0.01738668
66	0xbcbcad19	-0.023031758
67	0xbdd02068	-0.10162431
68	0xbd892f2a	-0.06698449
69	0xbc3c6130	-0.011497781
70	0xbd591647	-0.05299976
71	0x3d462efb	0.048384648
72	0xbd308e4b	-0.04310445
73	0xbd8a5caf	-0.06755959
74	0x3e0ffca7	0.14061223
75	0xbe086cac	-0.13322705
76	0x3e1e1f89	0.15441717
77	0x3e3d9ca3	0.18516783
78	0xbd6878fe	-0.056756012
79	0xbe1034bb	-0.14082615
80	0x3d29ca57	0.041452732
81	0xbd858d1c	-0.06521055
82	0xbcd59480	-0.026071787
83	0xbdf26c53	-0.118370675
84	0x3ce05ec8	0.027388945
85	0x3c55234e	0.013008906
86	0xbd0360ee	-0.03207486
87	0xbd7d9434	-0.061908916
88	0x3de4e0b2	0.1117567
89	0x3e9c96d9	0.30583838
90	0x3d7fdc26	0.06246581
91	0x3d85c7c5	0.06532244
92	0x3d829c04	0.06377414
93	0xbca8d2ca	-0.020608325
94	0x3e32480b	0.17410295
95	0x3da88a0e	0.08229457
96	0xbd8ba29d	-0.068181254
97	0xbdb87b45	-0.09007887
98	0x3e346926	0.17618236
99	0x3d9141ce	0.070926294
100	0xbd9834de	-0.074319586
101	0xbd183964	-0.037164107
102	0x3dfc2bbc	0.12313029
103	0x3e5834b7	0.21113859
104	0xbe258796	-0.16165003
105	0x3e6a936b	0.22907798
106	0xbe2c2759	-0.16811885
107	0xbe14e34d	-0.14539833
108	0x3d33f2bd	0.043932665
109	0xbe51c2f8	-0.20484531
110	0x3e464b5d	0.19364686
111	0x3db77e2f	0.089596145
112	0x3d1d6601	0.038427357
113	0x3cdaa1c4	0.026688464
114	0x3d503ca4	0.05083908
115	0x3c8eb63c	0.01742088
116	0x3c95c06c	0.01828023
117	0xbd9f8085	-0.07788185
118	0xbd148d86	-0.03626778
119	0x3dc87456	0.09787814
120	0xbdbc5a25	-0.09196881
121	0xbe0b5192	-0.13605335
122	0x3e1f7f28	0.1557585
123	0x3df5788d	0.11985884
124	0xbc0850dd	-0.008320061
125	0xbe4b13ca	-0.19831768
126	0xbdb93e27	-0.09045058
127	0xbd73857a	-0.059453465
128	0x3c1dd90c	0.009634268
129	0x3e783690	0.24239564
130	0x3bac4f63	0.005258487
131	0xbe02a174	-0.12756902
132	0x3d979ed4	0.07403341
133	0x3deacc6b	0.11464771
134	0xbdae8924	-0.08522251
135	0x3d7e1369	0.06203023
136	0xbdcf1cff	-0.101129524
137	0xbd88de27	-0.06682997
138	0x3dab88b1	0.08375681
139	0xbc970d20	-0.018438876
140	0x3e246e8e	0.16057798
141	0x3d40673e	0.04697346
142	0x3d3a7875	0.045525033
143	0x3ddc45e2	0.107555166
144	0x3dbcd435	0.09220163
145	0xbc891820	-0.016735137
146	0x3e1a4735	0.15066226
147	0xbdb4a1b6	-0.088199064
148	0xbdca4884	-0.098771125
149	0xbe1cf07c	-0.15326113
150	0x3d747ff0	0.059692323
151	0xbc82dd73	-0.015974736
152	0x3de8c013	0.1136476
153	0x3e48da14	0.1961444
154	0xbc8c85cc	-0.017153643
155	0xbd9ee2d5	-0.077581085
156	0x3e1b7f41	0.15185262
157	0x3d099ea8	0.033598572
158	0xbc9f482e	-0.019443598
159	0xbd0c0f9a	-0.034194566
160	0xbcf1b698	-0.029506013
161	0xbd46d81a	-0.048545934
162	0x3e4fd79e	0.20297095
163	0xbcbea7be	-0.023273345
164	0xbe264cef	-0.16240285
165	0xba4501bc	-0.0007515212
166	0xbcc1ef4f	-0.023673682
167	0x3df58ab0	0.11989343
168	0xbdcf21a3	-0.101138376
169	0x3d4be7be	0.049781553
170	0xbd8f8a5a	-0.0700881
171	0xbd77a152	-0.06045658
172	0x3e1656e9	0.14681591
173	0xbda68dfe	-0.081325516
174	0x3e844158	0.25831103
175	0x3e676b70	0.22599578
176	0xbd1a0b26	-0.03760829
177	0xbdfb604a	-0.12274225
178	0xbd72b2a2	-0.05925239
179	0x3d0beb41	0.034159902
180	0x3dce07cf	0.10060083
181	0x3e0141b3	0.12622719
182	0xbe89a6fc	-0.2688521
183	0xbd89db3c	-0.06731269
184	0x3de01c99	0.109429546
185	0xbd8c5b5f	-0.06853365
186	0xbd862c68	-0.065514386
187	0xbd88c72f	-0.06678616
188	0x3e32961e	0.17440078
189	0x3e4827aa	0.1954638
190	0xbe146a1e	-0.14493605
191	0x3c4fab57	0.012675128
192	0xbd235bc8	-0.03988245
193	0xbd86acd5	-0.06575934
194	0xbe0610e9	-0.13092388
195	0xbd4ed526	-0.050496243
196	0x3d54c5ae	0.051946335
197	0x3c7739f1	0.015089498
198	0x3e430c33	0.19047622
199	0x3dcc5fe9	0.09979231
200	0xbdf420e1	-0.11920334
201	0xbd9daf77	-0.07699483
202	0xbe2fc4a9	-0.17164864
203	0xbe8b904f	-0.27258536
204	0x3e05533f	0.13020037
205	0xbc66f329	-0.01409606
206	0x3d9d1a78	0.07671064
207	0xbe9ac836	-0.30230874
208	0x3e304d46	0.17216977
209	0xbe451e30	-0.19249797
210	0xbe600630	-0.2187736
211	0x3d92ff94	0.07177654
212	0xbd69d1fd	-0.057085026
213	0xbe4a219d	-0.19739385
214	0x3d317b69	0.043330584
215	0x3df26a1b	0.11836644
216	0x3beac312	0.0071643675
217	0x3df6a538	0.12043232
218	0x3cfd2f27	0.030906273
219	0x3d7414ed	0.05959027
220	0xbb96ebbe	-0.0046057394
221	0xbdfdbf88	-0.12390047
222	0xbd82a0e5	-0.063783444
223	0xbcae771a	-0.021297026
224	0xbc82adee	-0.015952077
225	0xbccca764	-0.024982162
226	0xbd13079f	-0.03589594
227	0x3c9faf61	0.019492807
228	0xbd1c0a79	-0.038095925
229	0x3d899597	0.06717985
230	0x3eb9b861	0.36273482
231	0x3ddcd84e	0.10783444
232	0xbd610243	-0.054933798
233	0xbe437609	-0.19087996
234	0x3d81bf0b	0.06335267
235	0x3b84e750	0.004055895
236	0x3d13450c	0.03595452
237	0xbe0fc48a	-0.14039817
238	0xbda67ef3	-0.081296824
239	0xbd83940b	-0.06424721
240	0x3d9ef7e5	0.07762126
241	0xbdae2789	-0.085036345
242	0x3e3b3b77	0.18284403
243	0xbe8b6c61	-0.27231124
244	0xbc0724e7	-0.008248544
245	0xbd700056	-0.05859407
246	0x3e0bc054	0.13647586
247	0xbdfd2ed3	-0.12362447
248	0xbc54906d	-0.012973887
249	0xbe485294	-0.19562751
250	0x3d2f49d7	0.04279503
251	0x3ec613b5	0.3868691
252	0xbe19ba48	-0.15012467
253	0xbe54acb7	-0.2076901
254	0x3e01242f	0.12611459
255	0x3e371bac	0.1788165
